…
":{"displayName":"Orange Duck","photoUrl":"https://lh3.googleusercontent.com/a-/AOh14GhV8HoFFtJh0EJOIEvVXLn8GxB6zch3LWpETm3bb5o=s64","userId":"06635000606903405167"}},"outputId":"60c1407d-0677-459a-dc7c-7dd96c150a23"},"source":["print(model.summary())"],"execution_count":25,"outputs":[{"output_type":"stream","name":"stdout","text":["Model: \"sequential\"\n","_________________________________________________________________\n","Layer (type)                 Output Shape              Param #   \n","=================================================================\n","batch_normalization (BatchNo (None, 79)                316       \n","_________________________________________________________________\n","dense (Dense)                (None, 1024)              81920     \n","_________________________________________________________________\n","dropout (Dropout)            (None, 1024)              0         \n","_________________________________________________________________\n","batch_normalization_1 (Batch (None, 1024)              4096      \n","_________________________________________________________________\n","dense_1 (Dense)              (None, 512)               524800    \n","_________________________________________________________________\n","dropout_1 (Dropout)          (None, 512)               0         \n","_________________________________________________________________\n","batch_normalization_2 (Batch (None, 512)               2048      \n","_________________________________________________________________\n","dense_2 (Dense)              (None, 256)               131328    \n","_________________________________________________________________\n","dropout_2 (Dropout)          (None, 256)               0         \n","_________________________________________________________________\n","batch_normalization_3 (Batch (None, 256)               1024      \n","_________________________________________________________________\n","dense_3 (Dense)              (None, 128)               32896     \n","_________________________________________________________________\n","dropout_3 (Dropout)          (None, 128)               0         \n","_________________________________________________________________\n","batch_normalization_4 (Batch (None, 128)               512       \n","_________________________________________________________________\n","dense_4 (Dense)              (None, 64)                8256      \n","_________________________________________________________________\n","dropout_4 (Dropout)          (None, 64)                0         \n","_________________________________________________________________\n","dense_5 (Dense)              (None, 1)                 65        \n","=================================================================\n","Total params: 787,261\n","Trainable params: 783,263\n","Non-trainable params: 3,998\n","_________________________________________________________________\n","None\n"]}]},{"cell_type":"code","metadata":{"id":"bV3eQExON8Oy","executionInfo":{"status":"ok","timestamp":1633087179764,"user_tz":-180,"elapsed":370,"user":{"
…
