…
z":-180,"elapsed":413,"user":{"displayName":"Dmitry Rumyankov","photoUrl":"https://lh3.googleusercontent.com/a/default-user=s64","userId":"14480037868963876618"}},"outputId":"d55879e5-6367-4522-9817-407b502fb72b"},"source":["print(model.summary())"],"execution_count":486,"outputs":[{"output_type":"stream","name":"stdout","text":["Model: \"sequential_30\"\n","_________________________________________________________________\n","Layer (type)                 Output Shape              Param #   \n","=================================================================\n","dense_158 (Dense)            (None, 1024)              297984    \n","_________________________________________________________________\n","dense_159 (Dense)            (None, 512)               524800    \n","_________________________________________________________________\n","dense_160 (Dense)            (None, 256)               131328    \n","_________________________________________________________________\n","dense_161 (Dense)            (None, 128)               32896     \n","_________________________________________________________________\n","dense_162 (Dense)            (None, 64)                8256      \n","_________________________________________________________________\n","dense_163 (Dense)            (None, 32)                2080      \n","_________________________________________________________________\n","dense_164 (Dense)            (None, 1)                 33        \n","=================================================================\n","Total params: 997,377\n","Trainable params: 997,377\n","Non-trainable params: 0\n","_________________________________________________________________\n","None\n"]}]},{"cell_type":"code","metadata":{"id":"bV3eQExON8Oy","executionInfo":{"status":"ok","timestamp":1638371423542,"user_tz":-180,"elapsed":1317,"user":{"dis
…
